tf_conv
cifar_10
epochs=10
batchSize=100
accuracy=69.680000%


Model: "sequential"
_________________________________________________________________
Layer (type)                 Output Shape              Param #   
=================================================================
conv2d (Conv2D)              (None, 30, 30, 32)        896       
_________________________________________________________________
max_pooling2d (MaxPooling2D) (None, 15, 15, 32)        0         
_________________________________________________________________
conv2d_1 (Conv2D)            (None, 13, 13, 64)        18496     
_________________________________________________________________
flatten (Flatten)            (None, 10816)             0         
_________________________________________________________________
dense (Dense)                (None, 100)               1081700   
_________________________________________________________________
dropout (Dropout)            (None, 100)               0         
_________________________________________________________________
dense_1 (Dense)              (None, 10)                1010      
=================================================================
Total params: 1,102,102
Trainable params: 1,102,102
Non-trainable params: 0
_________________________________________________________________
